best_mlp.pth (torch, 509586 bytes, 5 tensors)

mlp.0.weight f4 [128, 924]
000000 b4 54 07 bc 6b 8e 30 3b b6 ad d6 3b 59 b2 ac bc
       -0.008259941 0.0026940356 0.0065514697 -0.021081137
000010 be 84 8c bc 00 1a ba ba 1f 25 ed 3c d5 86 9d bc
       -0.01715314 -0.0014198422 0.028948365 -0.019229332
000020 da 1c e6 bc 31 d8 12 bc 5a fa 03 3d 7f b7 e2 bc
       -0.02808993 -0.008962677 0.032221176 -0.027675388
000030 79 99 60 3c cf f9 e0 3c cd 08 31 3b 4f 86 25 bc
       0.013708466 0.027462868 0.0027013302 -0.010102822
000040 5c 4c ed bb 1c 64 91 3b 92 50 0a 3d 84 2a 1c 3b
       -0.0072417688 0.004436983 0.033768244 0.0023829052
000050 0f 3f 42 bc 1e a7 76 3c c5 9d b7 3a da a6 89 3c
       -0.011855855 0.015054492 0.0014008811 0.016803194
000060 b2 8b b8 bb 40 a5 00 3d 41 3c 6a 3c 2e 48 ff 3c
       -0.0056318874 0.031407595 0.014296592 0.031162348
000070 86 48 fe bc ae b0 e2 bc aa db 97 bc 44 81 05 bd
       -0.031040441 -0.027672138 -0.018537361 -0.03259398
000080 60 6b ff 3c a4 21 b8 3b 53 a6 bb bb 3a ee 99 3c
       0.03117913 0.0056192447 -0.0057266145 0.018790353
000090 4b a0 e9 3c a1 ba 8b 3b 4b d9 b7 bc 5b fc a5 3c
       0.028518816 0.0042641913 -0.02244248 0.020261934
0000a0 4e d0 ce 3c 0f b9 a2 3c ff dd b7 bb 51 58 e2 b8
       0.025245812 0.019863633 -0.005611181 -0.0001079297
0000b0 e2 9b df bc fb d7 aa bc 3e 65 79 3c 86 19 f3 3c
       -0.02729601 -0.02085494 0.015221892 0.029675256
0000c0 1f e6 cb bc e8 a8 ee bc 7e 06 b8 3b 23 cc 55 bc
       -0.024890004 -0.029133275 0.0056160083 -0.013049158
0000d0 a6 02 7f 3b f7 14 55 3b 70 df 87 3c da 88 89 bc
       0.003891149 0.0032513717 0.016586035 -0.016788889
0000e0 b8 6e 54 3c b3 d3 b7 3c 57 f0 92 3b eb 91 09 3d
       0.0129658505 0.022439813 0.004484217 0.033586424
0000f0 03 5a cd 3c b1 a2 83 3c b6 b3 88 bc ba 03 f0 bc
       0.025067335 0.016068788 -0.016687255 -0.029298652
000100 38 bf 83 bc 04 e1 40 3c 56 de 7e bc e9 f8 f4 3b
       -0.016082391 0.011772398 -0.015555939 0.0074759615
000110 47 d7 45 bb 01 53 8e bc 85 54 79 3a 16 20 7e bc
       -0.003018813 -0.017373564 0.00095111906 -0.01551058
000120 ad 6d 09 3c 01 47 cf bc c5 98 7c bc 95 cf 21 bc
       0.008387965 -0.025302412 -0.0154172825 -0.009876152
000130 9f 29 07 3c 67 fc a2 3c 27 b1 86 bb a7 7f 29 3c
       0.008249669 0.019895745 -0.0041104737 0.010345376
000140 6f 47 45 3c e6 13 b9 3c 04 f8 b2 3c 75 a9 c3 bc
       0.012040957 0.022592496 0.021846779 -0.023884514
000150 43 5d d9 3c d0 e1 c5 3b dc cc 08 ba 80 58 88 bb
       0.026533728 0.006038882 -0.00052185147 -0.0041609406
000160 3e 55 c3 3c 46 16 ec 3b 4f 49 5e 3c 92 80 97 3b
       0.023844358 0.0072048036 0.013567283 0.004623481
000170 b4 e2 fb bc 26 d7 7f bc 0c 49 93 3c 17 f7 fd bc
       -0.030747749 -0.01561526 0.017979167 -0.03100161
000180 4a b0 67 bc 2e 56 91 bc f0 5d dd bb 22 84 2a 3c
       -0.014141152 -0.017741289 -0.006755583 0.0104074795
000190 b0 d4 76 3c d2 17 a4 bc d3 fe b7 bc b5 85 32 3c
       0.015065357 -0.02003089 -0.022460377 0.010896136
0001a0 ff 01 e2 b9 f3 64 b5 3c 0b a9 a6 3c 9f 67 4e 3c
       -0.00043107566 0.022142863 0.020344278 0.012597947
0001b0 e5 0f c0 bc 9f d4 ac bb 2c f0 de 3c 84 85 a9 3c
       -0.02344508 -0.00527437 0.027214132 0.020693548
0001c0 dc c9 0d bc 5a ba 26 bc 40 9a cd bc 4c 55 f5 3c
       -0.008654084 -0.010176266 -0.025097966 0.0299479
0001d0 e8 2e 71 bb 07 f4 27 3c 7e 92 31 3c 19 74 82 bc
       -0.003680164 0.010251052 0.010838149 -0.0159245
0001e0 b1 78 b5 bc d6 0a 7c 3c b7 b2 e5 bc 4a 39 50 3c
       -0.022152277 0.015383443 -0.02803932 0.012708971
0001f0 d5 80 b9 3c 0d 26 39 3c 0b 94 f2 bc 24 5e 06 bc
       0.02264444 0.011300576 -0.029611608 -0.008201156
000200 a9 c7 98 3c 4b a7 a1 bc 53 49 3e 3c 3e ac b9 3c
       0.018649893 -0.019733092 0.011614162 0.02266514
000210 76 56 91 ba 16 0e da bb 39 da 68 bc f3 09 1d bc
       -0.001108839 -0.006654511 -0.014212185 -0.009584892
000220 47 74 eb bc 9d 61 57 3c 98 21 d7 3c 53 0a 5d bc
       -0.028741969 0.013145831 0.026261136 -0.013491231
000230 41 7f dd bc b0 31 c8 bc 1c 5a 29 bc 77 6a c3 bc
       -0.027038218 -0.024437755 -0.010336425 -0.023854477
000240 12 5a a5 bc c4 2a 4e bb 55 25 89 ba 84 41 a5 bc
       -0.02018455 -0.0031458596 -0.0010463396 -0.020172842
000250 19 fe c4 3a f7 7b e3 3c 67 fe 05 3d 35 45 01 3d
       0.001502934 0.027769072 0.03271332 0.03156014
000260 8d 59 09 3d 55 6c af 3c 31 fc 43 3b 43 70 fa 3c
       0.033532668 0.021413961 0.0029904956 0.030571109
000270 03 a3 4f 3c b6 68 89 bc dd bb 8f 3c 75 ee cf bc
       0.012673142 -0.016773563 0.017545635 -0.02538226
000280 b4 45 ea bc 9a 66 02 bd de 92 06 3d 40 87 c6 3c
       -0.02859769 -0.03183613 0.032854907 0.024234414
000290 60 6b 19 bc da e7 22 3c 10 4e 0c 3d 90 0d a8 3c
       -0.009363979 0.009942973 0.034254134 0.02051428
0002a0 98 b9 78 bc a0 31 3a 3c 53 9b b0 3b c9 e0 e2 3a
       -0.015180968 0.011364371 0.00538961 0.0017309423
0002b0 13 bb 04 3d aa 95 e1 bb af c8 4c bc 45 30 1e 3c
       0.03240497 -0.0068842964 -0.012499019 0.009655063
0002c0 73 48 df bc f4 3c fe 3b 49 d6 24 3c 81 47 c6 3c
       -0.027256226 0.007758731 0.010060855 0.024204018
0002d0 ca 1e 84 3b 3f 86 1c 3c 0a 9e e7 3c 93 3f ff 3c
       0.0040319907 0.009553491 0.028273601 0.031158244
0002e0 de 44 e2 3c a1 dd 9e bc 45 62 bd 3b ab 6b f5 3c
       0.027620729 -0.01939279 0.005779537 0.029958567
0002f0 ae 19 a2 3b 0e d0 35 3a 7d 32 c1 bc 94 db ac 3b
       0.004946909 0.00069356046 -0.023583645 0.005275199
000300 73 af 8f 3c 26 8a d9 3c b7 e5 1a bb a6 dd 97 bc
       0.017539715 0.026555132 -0.0023635456 -0.018538307
000310 62 69 16 3c bf cc c1 3c c2 8c af bb 3a 83 7b bb
       0.009180399 0.0236572 -0.005357356 -0.0038377778
000320 38 f7 b8 bc a6 1a ed bc 1f 89 c6 bc 66 b8 38 bc
       -0.02257882 -0.028943371 -0.024235306 -0.011274433
000330 49 e3 e1 bc 68 b3 60 3b f5 92 4e 3c a7 e0 df 3c
       -0.027574198 0.0034286622 0.0126082795 0.027328802
000340 f1 d0 d3 bc da 1c c3 ba f0 59 b9 bc 33 47 ae bc
       -0.025856467 -0.0014885918 -0.022625893 -0.021274185
000350 12 c8 ab 3c 2a 3f 32 bc bb 54 0c bc 31 cc fe 3b
       0.020969424 -0.010879317 -0.008565123 0.0077758064
000360 43 38 fc bc 59 0d 06 bd 4f 30 9b 3b 7e dc 80 3c
       -0.030788546 -0.032727573 0.0047359834 0.015730139
000370 7b c2 20 3c 74 a7 71 bc 9a a7 e1 3c 8c e2 33 3c
       0.009811993 -0.014749397 0.027545739 0.010979306
000380 47 eb 30 3b 1d fe b7 bc 91 4f 12 3d 1c e9 1e 3c
       0.0026995705 -0.022460038 0.03572041 0.009699132
000390 08 6f c5 3b 2a 80 b6 3c bd 70 e8 3c 1a c7 c3 bc
       0.006025199 0.02227791 0.02837407 -0.02389865
0003a0 41 9c da 3c 6d 1c 72 3c 65 cb b2 3c 66 d5 1d 3a
       0.026685836 0.014777285 0.021825502 0.00060208736
0003b0 e5 24 0a 3c 2a f8 8c 3a 3f d6 57 3c 55 31 2e 3c
       0.008431648 0.0010755111 0.013173639 0.010631879
0003c0 f1 d0 dd 3c 12 4c e7 bc 5f ab 90 bc a8 d4 53 3c
       0.02707717 -0.028234515 -0.017659841 0.012929119
0003d0 e4 b1 d3 3c eb 30 56 3c 41 d8 a6 bc ce ae 80 3c
       0.02584166 0.013073186 -0.02036679 0.015708353
0003e0 cb 34 9c bc 20 23 9e 3c ec e0 b7 bc d4 ea 29 3a
       -0.019068142 0.019303858 -0.022446118 0.00064818305
0003f0 f8 f9 eb bb 87 4d fa 3c 0f a8 3d ba 53 81 f3 bc
       -0.0072014295 0.030554546 -0.00072348205 -0.029724753

mlp.0.bias f4 [128]
000000 c3 f4 0a 3c 6d 19 09 bc dd ae 0a bc e7 2b 24 3c
       0.008481207 -0.008367878 -0.008464542 0.010020233
000010 ae 78 bf 3c 90 06 04 3d f3 19 61 bc b9 13 de bc
       0.023372974 0.03223282 -0.013739097 -0.027109014
000020 c9 04 a2 bc ad 7b b7 3c 5e 04 b7 39 43 b4 0d bd
       -0.019777672 0.02239784 0.00034907734 -0.03459574
000030 da 21 89 bc b4 37 ea bb fe 01 c3 bc 18 8e 45 bc
       -0.016739774 -0.0071477536 -0.02380466 -0.012057804
000040 5b 7d 1a 3c aa 88 89 bb d7 6c 74 bb 92 f9 2c 3c
       0.009429301 -0.0041972 -0.003729632 0.010557549
000050 4b c9 51 bc dd 2b 00 bc 6a f4 f4 37 73 f8 d7 bc
       -0.01280434 -0.007822958 2.920088e-05 -0.026363587
000060 9f 5b ab 3c f2 99 12 bc 9b 98 d0 3b e2 c1 02 bc
       0.020917712 -0.008947836 0.0063658482 -0.007980796
000070 d8 41 58 bc d1 b8 62 39 b4 40 ab 3c 03 32 a5 3c
       -0.013199292 0.00021621889 0.020904876 0.020165449
000080 69 69 e5 3c 68 fc a2 bb 34 1e c9 bc 7e 2b 27 bc
       0.028004365 -0.004973937 -0.024550535 -0.01020324
000090 29 c8 1c 3a c1 84 2c 3c a2 20 8b 3b 3d 6e 58 bc
       0.0005980754 0.010529698 0.0042458335 -0.013209877
0000a0 9b 00 f3 3b 30 aa cf 3c 4d da f4 3c 15 dd bb bc
       0.0074158437 0.025349706 0.02988925 -0.022932569
0000b0 71 82 cc 3b 1a 0d 91 3c bd 3e 83 bb bd b0 2a 3c
       0.0062411358 0.017706443 -0.0040052817 0.010418114
0000c0 fe 3b 3e 3c de ac 7c bc f9 77 ec bc 34 fd 5b 3c
       0.011610983 -0.015422074 -0.028865801 0.013427068
0000d0 c8 02 c5 3b 81 3c 1e bc 1e 36 ed bb e6 86 26 bc
       0.0060122944 -0.00965798 -0.0072391173 -0.010163998
0000e0 cc 3d 87 3c 42 05 95 bb 3f c6 08 3d 4a e8 bd bc
       0.01650896 -0.004547746 0.033392187 -0.023182053
0000f0 33 ed 62 3c a1 58 00 3c f7 fb c5 bc 83 9e 6a 3b
       0.013850498 0.007833631 -0.024167998 0.0035800047
000100 09 27 a8 3c dd d5 a7 3a 02 1e a0 bc a1 c3 9d bc
       0.020526426 0.0012804825 -0.019545559 -0.019258322
000110 70 a1 18 3d e3 d3 cd bc c4 f4 35 3c 0e 4b bb bb
       0.037263334 -0.02512545 0.01110572 -0.0057157343
000120 21 7c d0 3c ac c0 43 3c 2a cd 25 3c e7 33 0e 3d
       0.025449814 0.011947792 0.010119716 0.034717467
000130 4a 65 34 bc b8 d1 86 3b da 04 82 bc 80 87 6d b7
       -0.011010477 0.004114356 -0.015871454 -1.4157849e-05
000140 fa 2e 7a ba 62 46 0e bc cf f0 8f bb 30 53 6f bc
       -0.0009543743 -0.008683773 -0.0043927203 -0.014607236
000150 e9 72 b1 3c cf 7b a2 3b 8a 32 df 3c 3e d1 01 bb
       0.021661239 0.004958607 0.027245779 -0.0019808556
000160 b3 7d 44 bc d3 3a ad 3c cf 49 f7 3c ac 45 28 3c
       -0.01199286 0.021146214 0.030186562 0.010270517
000170 b6 77 2a 3c f4 d3 d8 3c f1 de 75 bc 7b 74 75 3c
       0.010404518 0.026468255 -0.015006767 0.014981384
000180 f4 b2 80 bc 68 bd bb 3c e6 78 c3 bc a4 8d d0 bb
       -0.015710331 0.022917464 -0.02386136 -0.006364541
000190 96 16 a5 3c a3 5c 84 3c 26 18 1f 3c 0a 4f 0e 3c
       0.020152371 0.016157454 0.009710347 0.008685837
0001a0 f1 7b 63 3a 8e 02 e0 3b 20 0d 7d bc a0 4e 91 3c
       0.00086778315 0.006836242 -0.015445024 0.017737687
0001b0 fb 23 5b bb 51 1c f6 bc 91 07 9c 3b cc 21 f2 3c
       -0.0033438194 -0.0300428 0.004761644 0.029557131
0001c0 36 22 e9 bb 34 c5 86 bc ad a7 49 bb eb 0a d9 3c
       -0.007114674 -0.016451456 -0.0030770109 0.026494464
0001d0 cd d9 58 bc 18 42 f0 3b 37 ce 0d 3d 71 a3 f0 3c
       -0.0132355215 0.0073320977 0.03462049 0.02937481
0001e0 d6 8c 8d bb e4 8f a9 bc 2d d3 9a bb 79 b6 8e bc
       -0.0043197675 -0.020698495 -0.004724881 -0.017420994
0001f0 46 c1 04 bd 45 b8 95 bc d9 df cb 3c a4 61 d3 bc
       -0.032410882 -0.018276343 0.024887012 -0.025803395

mlp.2.weight f4 [64, 128]
000000 32 2d a4 bd 06 92 e9 3c 09 8f 8e bd 17 6b 86 bd
       -0.08016433 0.028512012 -0.069608755 -0.065633945
000010 85 aa a9 bd 2a d8 ab bd 40 15 01 3b c4 79 45 bd
       -0.08284477 -0.083908394 0.0019696504 -0.048211828
000020 c9 bd 8e 3d 2c 57 5d 3d 6c 57 95 3d cf 7a 95 bd
       0.069697924 0.05403821 0.07292065 -0.072988145
000030 93 f4 f9 bc a8 c1 05 3d 39 f3 9b 3c b7 e7 e8 bb
       -0.03051213 0.032655388 0.019036876 -0.0071077007
000040 b3 bd 59 bc c0 f7 21 3b a7 87 a2 3d f4 d1 16 3d
       -0.013289857 0.002471432 0.0793603 0.03682132
000050 8e 88 9e bd a8 36 a7 3d 8a 0e e3 3b d1 74 25 3d
       -0.077408895 0.08164722 0.0069292234 0.040394608
000060 26 bd 3e bd cc 07 5e 3c c5 a1 9e bd 10 2f a8 bb
       -0.046567105 0.013551664 -0.07745699 -0.0051325634
000070 35 08 a9 3d 11 0b f7 bb 16 d4 6b 3d c4 19 6c 3c
       0.082535185 -0.007539161 0.057575308 0.01441044
000080 a1 51 81 bb 12 8b 0d bd 9a 83 1e 3d d5 aa a3 bd
       -0.0039464985 -0.034556456 0.038699724 -0.07991568
000090 10 32 b5 3d 2a 6b 12 bd e0 4d 34 3d 8e 04 30 bd
       0.08847439 -0.03574673 0.04401958 -0.042973094
0000a0 d7 9f 8e bd 81 03 8a bb f7 61 8b 3d ed bb 88 3c
       -0.06964081 -0.0042118435 0.06805795 0.016691172
0000b0 05 51 fa 3c 99 7d 95 bd e3 a7 32 bd fe 69 97 3d
       0.030556211 -0.072993465 -0.04361714 0.07393263
0000c0 94 bb a2 3c 4f 36 95 3d 3f d3 49 3d 8a 11 b6 bc
       0.019864835 0.07285749 0.049273726 -0.02222516
0000d0 c9 1e 8f bc 58 fc 67 3d 0c 58 09 bd d4 4f 37 bd
       -0.017470734 0.056637138 -0.033531234 -0.044753864
0000e0 ae 41 12 3d 1e e7 a3 bd 3f f1 80 3c 8b 82 61 bd
       0.03570717 -0.080030665 0.015740035 -0.055056136
0000f0 95 6f 86 bd 4a f0 90 bd 9c b4 75 bd 11 24 63 bd
       -0.06564251 -0.070770815 -0.059986696 -0.055454317
000100 f5 b7 bd 3d cc f9 15 bd 8b c6 9c bb 60 ce b3 bb
       0.09263603 -0.036615178 -0.0047844104 -0.0054872483
000110 87 53 98 3b f8 e0 0f bc 59 e3 8f 3c 47 4c 14 bc
       0.004648629 -0.008781664 0.017564462 -0.009051389
000120 df 80 57 bd ea 4c 61 bd a4 83 82 bd 35 6e 9e bd
       -0.052613135 -0.05500499 -0.06372765 -0.07735864
000130 07 4b 39 bc ea 86 2b bb 82 f8 b0 3c 40 8e 38 bc
       -0.011309392 -0.0026172944 0.021602873 -0.011264384
000140 57 b9 38 bd 02 fc a3 3c 09 3d 9a 3d c0 84 9d 3d
       -0.04509863 0.020017628 0.07531173 0.07691336
000150 d4 64 f2 bc 86 07 58 bd c5 ed 23 bc 82 5c 18 bb
       -0.029589094 -0.05274155 -0.010005419 -0.0023248498
000160 18 f1 6c bd 49 23 98 3c e6 b3 8d bd 9b fd 8b 3d
       -0.057847112 0.018571513 -0.069190785 0.06835481
000170 18 19 30 bd d5 4a a9 bd 65 3a a4 3d 6f 74 3b 3d
       -0.04299268 -0.08266226 0.080189504 0.045765337
000180 3f ce ac bd 1a 2a af 3d 9f 08 7d bd 46 f1 0b bd
       -0.08437776 0.08552952 -0.0617758 -0.034165643
000190 01 31 a4 bd 65 ec e9 bc 61 c2 3c 3d ec 00 56 3c
       -0.08017159 -0.028555105 0.04608381 0.013061743
0001a0 95 4d 47 3d f9 80 13 bd 09 f0 6f 3d 11 5e 31 3d
       0.048657972 -0.03601167 0.058578525 0.0433026
0001b0 31 43 a1 bd d0 8f 97 bc 03 ec 9e bd 43 dc 13 3c
       -0.07874144 -0.018501192 -0.077598594 0.009024682
0001c0 d7 21 75 3d 1d 6b 2d bd fd 1b 35 bd 99 32 d7 3c
       0.059846725 -0.04233848 -0.044216145 0.026269244
0001d0 22 dd 5f 3d c0 9e f4 bc 62 ac 83 3d 7c d9 a1 bd
       0.054654248 -0.029860854 0.06429364 -0.0790281
0001e0 ef aa 7b bc 0a bc 27 bd ed aa af bd 75 4c c8 bc
       -0.015360578 -0.040950812 -0.085775234 -0.02445052
0001f0 bd 82 b8 3b 4d 7e 67 3d cf 54 5f bd e4 71 9b 3d
       0.0056308196 0.056516934 -0.05452424 0.07590082
000200 81 39 b6 bd a9 31 77 bd 14 2e 9b bd 07 84 95 3d
       -0.08897687 -0.060350094 -0.07577148 0.07300573
000210 f8 e2 95 3d 12 7b 82 3d b9 e3 96 bd 57 8e 3c 3d
       0.073186815 0.0637113 -0.073676534 0.046034183
000220 4f b0 a2 bd 55 ec bb 3c 74 61 98 bb 2d c4 84 3d
       -0.079437844 0.02293984 -0.004650289 0.0648273
000230 bf b8 93 3b ed b3 29 3d 63 ae 1f bd 0b 4f 65 3d
       0.0045081074 0.041431356 -0.038984668 0.055983584
000240 7f 1f aa 3c 19 1c 73 bd 41 a8 fd 3c 00 b7 40 3d
       0.020766972 -0.059352968 0.030964019 0.047049522
000250 83 6e 8b bc d7 23 ad bd 14 66 90 bd 6f 3f 9a 3d
       -0.01702047 -0.084541015 -0.0705072 0.0753163
000260 a1 62 6c 3d 08 16 60 3c de 57 ad 3d 32 b5 5d 3a
       0.057711247 0.013677128 0.08464025 0.0008457481
000270 ba cc b4 bd a4 19 26 bd 34 ef 56 bc cd 28 0a bd
       -0.08828111 -0.040551797 -0.013118554 -0.033730317
000280 0d 18 dd 3c b1 23 7a 3d 8c 9f 14 bd 98 5c 11 3d
       0.026989007 0.061069194 -0.03628497 0.035488695
000290 b2 cf a3 3d d6 64 8c 3d 49 d1 23 3d 84 63 90 3a
       0.07998599 0.068551704 0.03999451 0.0011015986
0002a0 81 a1 a1 3d 72 0c 6e bd 91 75 14 bc 3f 80 1e 3d
       0.078921326 -0.058117338 -0.009061233 0.038696524
0002b0 cf 8a 45 3d 4c 1b ee 3c ae 47 3d 3d 0f 13 ba 3c
       0.04822808 0.02906575 0.046210937 0.022714166
0002c0 4a c6 7e bc cc e5 e0 bc c1 e5 b8 3c e8 2c e1 bc
       -0.0155502055 -0.027453326 0.022570493 -0.027487233
0002d0 79 94 67 bd 68 79 01 bb 94 1b 16 bc e0 ec 83 3d
       -0.05653808 -0.0019756202 -0.009161849 0.06441665
0002e0 cd d7 a1 3d 49 2f 91 bd 92 20 aa 3d ee 90 b0 3d
       0.07902489 -0.07089097 0.083069935 0.08621393
0002f0 07 0b 50 3d 05 33 72 3d 38 0d e1 bc 05 7b 01 3d
       0.050791766 0.059130687 -0.027472124 0.03161146
000300 36 35 ad 3b 06 b1 a1 bd 80 6a 29 3d 65 54 1a 3d
       0.0052858843 -0.07895093 0.041361332 0.03767814
000310 b6 92 51 3a 8e 46 93 3d 04 a5 c5 bc c4 e2 f5 3c
       0.0007994579 0.071911916 -0.024126537 0.030015357
000320 b5 ea 6d bd cf 3c 29 bd b2 a1 1d 3d d3 c2 28 3d
       -0.058085162 -0.041317757 0.038484283 0.041201424
000330 14 be 69 bd 9a 85 51 3d 68 98 bd 3d 9e 2a be bc
       -0.05706604 0.051152803 0.09257585 -0.02321368
000340 46 c3 9b 3d eb c5 4d 3d 06 8e 59 3c 93 6b 49 bd
       0.07605605 0.050237577 0.01327849 -0.049174856
000350 a5 a4 97 bd 13 0c a7 3d 60 dc 0f 3d da e2 b2 bc
       -0.0740445 0.081566 0.035122275 -0.021836687
000360 ad 68 f3 3b 6c 07 73 bb 07 01 19 3d cc 0c ac 3b
       0.00742825 -0.0037083281 0.037354495 0.005250549
000370 b9 69 46 bd c8 2d ae bd 67 20 2b bd 98 ba de bc
       -0.04844067 -0.08504826 -0.04177895 -0.027188584
000380 b5 de c2 3c bd c4 ff 39 37 a8 9a bd a0 8a 23 3d
       0.023787836 0.00048783972 -0.07551616 0.039927125
000390 b3 a4 df bc ab 36 48 bc b7 a1 24 3c 7b 44 1e bd
       -0.027300214 -0.012220065 0.010048321 -0.038639527
0003a0 ed ce a4 3d 00 f9 cb 3c 42 2f 53 bd 68 5c 3a 3d
       0.080472805 0.024899006 -0.05155874 0.04549828
0003b0 aa b5 8c 3d 71 29 3b 3c d5 c2 92 bd 90 fd c5 bb
       0.06870587 0.011423455 -0.071660675 -0.00604219
0003c0 c7 4f d5 bc 5e 57 ea bc 94 da 19 3d e4 b1 75 bc
       -0.026039017 -0.028606113 0.037561968 -0.014996026
0003d0 9d cc 58 bd d4 f0 b2 3d ca de f7 bc b8 e5 05 bd
       -0.05292951 0.087373406 -0.030257601 -0.03268978
0003e0 ef 1d 6d bd f3 15 89 3d 3a 75 82 3c 85 43 02 3d
       -0.057889875 0.066936396 0.015925039 0.031802673
0003f0 e6 a1 75 3d fc 28 09 3d 0d 02 9f 3d 61 29 7d bd
       0.05996885 0.03348635 0.07764063 -0.06180704

mlp.2.bias f4 [64]
000000 f0 fc 81 bc ea b5 06 3d 29 2b a2 3d 1c 65 95 3d
       -0.01586768 0.03288833 0.079183884 0.07294676
000010 a4 ea 07 bd 41 93 aa bd e1 d1 ae bd 29 1e 76 3d
       -0.033182755 -0.08328868 -0.08536125 0.060087357
000020 3e 9e 20 3d 42 bc 80 bd 18 a0 c9 bc 26 dd 33 bd
       0.03921341 -0.06285907 -0.024612471 -0.043912075
000030 c1 c0 a0 bd 16 7d 9e 3d 12 6a f3 3c 9c 98 8c 3c
       -0.07849265 0.07738702 0.029713664 0.017162614
000040 36 f6 0f 3d f6 ef a9 bd 70 3c e5 3c 6c a9 c5 bc
       0.035146914 -0.08297722 0.02798292 -0.024128638
000050 96 45 8a 3d ac 5e 8f bd dd bd 18 bd 77 b6 ac 3d
       0.06751554 -0.07000479 -0.037290443 0.0843324
000060 f4 2d 10 bd f9 3f c6 bc 5f 50 df bc 4e a9 48 3d
       -0.035200074 -0.024200426 -0.027260004 0.048989587
000070 b6 da 26 3d 5a 27 6e 3d 6d d3 a3 3d b3 15 68 bd
       0.040735923 0.058142997 0.07999311 -0.05666132
000080 ff de 3c bd c3 de 07 bc 4a 04 7f bd b3 a1 4e 3d
       -0.046111103 -0.008292857 -0.06225995 0.050447177
000090 bc dc 71 3d 01 d7 af 3d 89 d4 b9 3c 37 c9 34 3c
       0.0590484 0.085859306 0.022684352 0.0110343015
0000a0 7c 59 40 bc 92 65 2e 3d a1 48 87 bd 54 2c ac bd
       -0.011740085 0.042577334 -0.0660565 -0.084068924
0000b0 43 bb 1b 3d 3d dc 41 bd de f9 0e 3d c6 d8 bc bc
       0.038020384 -0.047329176 0.03490626 -0.023052584
0000c0 85 11 b5 bd 81 db 1e 3c f2 5e b1 3d de 7e f6 bc
       -0.08841232 0.0096958885 0.086606875 -0.030089792
0000d0 00 c1 83 3b 46 76 8b bd 55 5e 89 3d 15 3b 25 bd
       0.00402081 -0.06809668 0.067074455 -0.04033955
0000e0 99 99 76 bd e1 84 1f bd 9d af 96 3d 41 33 39 bd
       -0.060205076 -0.038945083 0.07357714 -0.045214895
0000f0 fb f6 ee bc 5c 92 f5 3c 80 fb c7 bb 98 8f 3c ba
       -0.029170504 0.029977016 -0.006102979 -0.0007193028

mlp.4.weight f4 [1, 64]
000000 25 56 91 3d 16 ee e4 3d f1 4c 0f 3c 50 9e 19 bd
       0.07096509 0.11178224 0.008746372 -0.037504494
000010 45 98 31 3d 81 41 39 3d b5 f6 ae bb eb da e4 bd
       0.043358106 0.045228485 -0.0053394684 -0.11174568
000020 22 4b 19 bc b1 c7 93 3d b9 cf 1d 3d 43 05 e1 3c
       -0.009356292 0.072158225 0.038528178 0.02746833
000030 d4 f5 26 3d 0e f7 ee 3d 58 c3 22 bd b9 cc 29 bd
       0.040761784 0.11668216 -0.039737076 -0.041455004
000040 d1 f2 1f bd 70 aa e0 3d 3c e5 22 bd 07 77 8f bc
       -0.039049927 0.109700084 -0.039769396 -0.017512811
000050 cb 1e 04 3e df 2e 7e 3d b0 b4 eb 3d 9b cd 18 3d
       0.12902372 0.06205642 0.11509073 0.037305456
000060 52 00 e1 bc 43 c9 01 3d f8 86 e4 3d 02 3d 11 3d
       -0.027465973 0.03168608 0.11158556 0.035458572
000070 0e d2 c3 bd fc 00 3a 3d 09 39 ae bc 2e 21 9e 3d
       -0.09561549 0.045411095 -0.02126743 0.07721172
000080 06 1c 73 3d 32 37 c8 bd 0e f0 50 3c fd 54 4f bd
       0.059352897 -0.09776153 0.012752546 -0.05061816
000090 b3 7a 45 bd 54 30 ae 3b 75 f4 ff 3d 3d ad 95 bd
       -0.04821272 0.0053158198 0.12497798 -0.07308433
0000a0 90 ca 62 bd 25 80 e2 bd 67 7e 83 3d 4b 8a 25 3d
       -0.05536896 -0.11059598 0.06420594 0.04041509
0000b0 2c 3b e3 3d 1e 2c 84 3d d6 aa 8e 3d ab b8 1e 3d
       0.110952705 0.06453727 0.06966178 0.03875033
0000c0 74 e6 2b bd 59 8e 75 3d 39 34 0c 3d 2f 91 06 3e
       -0.041967824 0.059950206 0.03422949 0.1314132
0000d0 3b 2a be 3c c9 06 bd bc df f0 d5 3c d6 46 71 bd
       0.023213496 -0.023074524 0.026115833 -0.058905445
0000e0 fd e0 dd bd d9 f8 d1 3d b5 8c e1 bc 0a 6e 91 3d
       -0.10833929 0.10252542 -0.027532915 0.071010664
0000f0 6f 93 dc 3d f1 3d b8 bd c3 bc 03 3e b8 3b 77 bc
       0.10770308 -0.089961894 0.12864976 -0.015089922
