best_mlp.pth (torch, 171666 bytes, 5 tensors)

mlp.0.weight f4 [128, 264]
000000 bb 59 97 3c 0a 49 6a 3d 05 eb 69 bd f6 b8 59 3c
       0.018475404 0.05719856 -0.057108898 0.013288727
000010 52 09 5d b9 f3 2b 76 bd de ee 35 bb 6d 89 40 3d
       -0.00021079674 -0.060100507 -0.0027760784 0.04700606
000020 c9 89 84 bd 1e 55 2e 3c 47 a4 02 bd cd d7 e4 3c
       -0.06471593 0.010640411 -0.03189495 0.027934933
000030 9a cf 51 3d d5 69 7c bd 0f 8a 38 bd cf 93 49 3d
       0.051223375 -0.061624367 -0.045053538 0.049213227
000040 04 c1 72 bc 00 9b 1d bc 4a 45 ec bc 75 19 0e 3d
       -0.014816526 -0.009619474 -0.028841633 0.034692246
000050 10 e9 28 bd ec 04 eb 3b 34 8c 0e 3a d3 78 32 3d
       -0.04123789 0.0071722176 0.0005437762 0.04357226
000060 96 76 38 3d ca 13 3b 3d b4 d7 4b 3d d7 f8 ee bb
       0.045034967 0.04567317 0.049766257 -0.0072928476
000070 c8 82 17 ba 65 2d 44 3c 5e bf bb bc 40 03 5e bd
       -0.0005779681 0.0119737135 -0.0229184 -0.05420232
000080 79 0c 0b bc c5 69 15 3d ee b3 39 3d fe f8 dd bc
       -0.00848686 0.036477823 0.04533761 -0.027096268
000090 7a c7 13 3d f3 2e 22 3c 14 86 0f bc a5 17 2b 3d
       0.036078908 0.009898889 -0.008759994 0.041770596
0000a0 ff ea 91 3c d2 ba dc bb b8 1b 17 bc 8b d7 2a 3d
       0.01781225 -0.006736138 -0.009222917 0.041709464
0000b0 06 14 71 bc 03 5a 2e bd 83 71 58 bc fe 08 4f bb
       -0.014714247 -0.04256631 -0.013210657 -0.0031591053
0000c0 9f 8f 2e bd 16 c2 8b 3c e8 37 28 3b 21 9c 28 3b
       -0.042617436 0.01706032 0.0025668088 0.0025727826
0000d0 88 65 c6 3c f5 42 56 3c a7 0e f8 3b 31 7d 03 3d
       0.024218336 0.013077487 0.007570106 0.032101814
0000e0 92 53 82 bd e4 b3 e8 bc c1 74 21 bd cb 04 18 bd
       -0.06363596 -0.028406091 -0.039417986 -0.037113946
0000f0 1f da 2b 3d 6c d1 5c bd 13 98 4b bc b1 7a 7a 3c
       0.041956063 -0.053910658 -0.012426394 0.015288041
000100 ce 54 01 3d 9a e5 b1 bc 45 7d 15 bd ba b2 9b bc
       0.031575017 -0.021715928 -0.03649642 -0.019006122
000110 6a d5 7b 3d 4c b5 f8 bb 88 5f cd bc f9 6c 8b 3c
       0.061482824 -0.0075899716 -0.025069967 0.017019736
000120 d3 dc 9a 3c 66 35 d0 bc c8 2c 1e bd 3a 09 3d bd
       0.018904125 -0.025416087 -0.038616925 -0.046151377
000130 8a 03 0c bd 3a d1 eb 3c 29 e1 64 bd e1 7f 51 3d
       -0.034183063 0.02878629 -0.055878792 0.051147345
000140 3b 2f 89 3c b6 f7 88 bc c2 97 37 bd 74 79 64 bd
       0.016746154 -0.01671968 -0.044822462 -0.05577989
000150 6c 39 3a bd f8 8d 49 bd 4f 5e 4a 3d f0 a6 64 bb
       -0.045464918 -0.049207658 0.049406346 -0.0034889542
000160 bf 1c cb bc 0d 83 55 bd a0 9f 85 3c 67 73 2d bd
       -0.02479398 -0.052126933 0.016311467 -0.042346384
000170 44 c4 7e 3d e8 da 21 3c 19 25 eb bb 9a c7 cd 3c
       0.062198892 0.0098788515 -0.0071760532 0.025119592
000180 56 db 22 3d 97 fe f1 bb 16 0d cb 3c 7b 41 0c bc
       0.039759956 -0.007385086 0.024786513 -0.008560534
000190 f6 bf 61 3c 42 84 d4 bc 84 5e 23 bd 8a bc 70 bd
       0.013778677 -0.025941972 -0.03988506 -0.058773555
0001a0 e4 72 27 3d e7 54 1b bd e1 cc 67 3d 61 c5 23 bd
       0.040881053 -0.037922766 0.056591872 -0.039983157
0001b0 1e 89 70 bd 22 43 39 3d 3d 5f 38 bd 71 25 53 3d
       -0.058724515 0.04523004 -0.0450127 0.05154938
0001c0 f1 09 be 3c 11 af 65 3b cc 8f 2f bc 02 b5 5e 3d
       0.0231981 0.0035046975 -0.010715436 0.05437184
0001d0 00 fb 71 bd bf eb bb 3c d6 66 1e bd 97 31 54 3d
       -0.059077263 0.022939561 -0.03867229 0.051805105
0001e0 ad 58 d8 3b 27 6d 04 bd 8f f3 57 bd d5 3a dc bc
       0.006602368 -0.03233066 -0.05272251 -0.026883522
0001f0 35 58 69 bd 3a 0a 3e 3d 65 76 f4 bc c1 a3 5f bc
       -0.056968886 0.04639647 -0.029841611 -0.013649882
000200 60 e6 e3 bb 90 bf 55 bc 94 38 a5 bc f1 c1 61 3c
       -0.006954953 -0.01304616 -0.02016858 0.013779149
000210 2b 59 ee 3b e0 df 5e bd db 2d 3e bc 9d c2 5f 3d
       0.0072738132 -0.054412723 -0.0116076125 0.054628957
000220 e2 19 1e 3c 5d a3 1f bd 80 a5 7d bc 4f 04 72 bd
       0.009649726 -0.038974155 -0.015481353 -0.05908614
000230 82 fa 02 bc 76 40 be 3c 9c a3 18 3d bb d7 77 bd
       -0.007994296 0.023224097 0.037265405 -0.06050847
000240 d4 da 2b 3c 39 54 42 3d b3 fe 1f 3d a1 85 76 bd
       0.010489184 0.047443602 0.03906126 -0.060186032
000250 90 af 61 3d 33 8a 84 bc 93 65 1f bc 9c 94 0e bd
       0.05509907 -0.01617918 -0.009728807 -0.034809694
000260 14 5f 0e bd 01 19 5a bd 0d b2 3a 3d 19 1b 27 3b
       -0.034758642 -0.0532465 0.04557996 0.002549833
000270 b6 3f 4f 3d bc 6b 3d bc 7e 3e 1e bc ed c2 3b bd
       0.05059787 -0.01156133 -0.009658454 -0.045840193
000280 8f b6 c5 3c 3d a6 34 bd a0 54 63 bc db 8c 77 bd
       0.024134902 -0.04410385 -0.013875157 -0.060437065
000290 fc 9c 8c bc 6f 44 c0 bc 22 78 23 bd f8 5a 6b bd
       -0.0171647 -0.023470132 -0.03990949 -0.0574598
0002a0 a4 fc 6b 3c 30 01 a8 3c de ea b6 3b 26 d2 75 bd
       0.014403496 0.020508379 0.0055821976 -0.060014866
0002b0 d4 50 3d 3c 03 53 ab 3c ec 1f d6 bc d1 77 f2 3c
       0.011554915 0.020913607 -0.026138268 0.029598149
0002c0 76 06 f1 3a 1e b2 6b 3c a5 34 e3 3b ca 91 07 3d
       0.0018388766 0.014385728 0.006933766 0.03309802
0002d0 af 48 35 bd 6c 6c 7e bd 49 33 a4 bc dd 71 94 3c
       -0.04425877 -0.062115118 -0.020043986 0.0181207
0002e0 04 42 2a 3b e2 19 16 3d 4c 49 2e bc c7 f3 e0 3c
       0.002597929 0.036645778 -0.0106375925 0.027459992
0002f0 48 ca 51 3c 43 7b f5 bc bf 6e 15 bb b4 b3 29 3d
       0.012804575 -0.029966002 -0.0022801606 0.041431144
000300 90 74 17 bd 45 1f 75 3d 42 81 62 3d 58 9f e7 bc
       -0.036976397 0.059844274 0.05529905 -0.028274223
000310 01 82 38 bd 2f 65 19 3b d3 48 64 bc 21 1a 3a 3d
       -0.045045856 0.0023406257 -0.013933378 0.045435075
000320 8f c8 d2 bc da b2 08 3d d6 52 aa 3c 39 57 0c 3b
       -0.0257304 0.03337369 0.020791452 0.0021414293
000330 0b 0b ee bb ae 59 64 3d d6 4c 2e 3d b5 42 34 bd
       -0.0072645 0.055749588 0.042553745 -0.04400893
000340 ca 3d 6f bd a6 d1 25 bc 3f 99 2d bd 1f 63 cb bc
       -0.058408536 -0.010120785 -0.042382475 -0.024827538
000350 fe 1e 1c bb a7 a9 3d bd 57 af 61 3d a6 98 9e 3c
       -0.0023822184 -0.04630437 0.055098858 0.019359898
000360 23 e1 48 bd 5a 2b e8 bc 1c ac 33 bd c3 63 84 bd
       -0.049042832 -0.028340984 -0.04386531 -0.064643405
000370 72 a8 1e 3d 51 6b 15 3d 57 45 15 3d d4 13 35 bc
       0.03873486 0.036479298 0.03644308 -0.011052091
000380 5c 7b 2c 3d 5e df cc bc 96 4b 49 3d 84 b8 cd bc
       0.042109832 -0.025008854 0.04914435 -0.025112398
000390 54 8c 60 3d 20 22 77 bd 66 de 23 3d 29 23 97 3c
       0.054821327 -0.06033528 0.040007018 0.018449383
0003a0 26 88 e7 3a 9c 17 5f 3c 86 30 92 bc 9c 9f 4c 3c
       0.0017664477 0.013616469 -0.017845403 0.012489226
0003b0 cd 04 d4 3b ab 9b ab 3c 6b 32 f4 3c 21 74 89 3c
       0.006470299 0.020948252 0.029809197 0.016779007
0003c0 58 df cb 39 ba 65 89 bc 15 97 ea bc cd d5 5d bc
       0.0003888558 -0.01677214 -0.028636495 -0.013539744
0003d0 90 88 13 bd 20 af 29 3d 2d 4f 19 bc 55 53 25 bd
       -0.036018908 0.041426778 -0.009357256 -0.040362675
0003e0 c3 22 90 bd b6 24 2f 3c 20 23 74 3d 2b 91 88 bc
       -0.0703788 0.010689905 0.05960381 -0.016670784
0003f0 7e 19 68 bd 76 3b 32 3d 37 0a 0a bd 0d 2b 44 3d
       -0.056664936 0.043513738 -0.033701148 0.04789262

mlp.0.bias f4 [128]
000000 e3 95 13 bb 6d 3e cc 3c 25 ef 9a bc 22 f9 e1 3b
       -0.002251976 0.02493211 -0.018912861 0.006896154
000010 23 ba 8e bb d5 f5 a8 3b 6c b9 71 bc 2a 73 8b bb
       -0.0043556853 0.0051562586 -0.014753681 -0.004255672
000020 6e d9 56 bd 69 0b 39 bd bd 78 63 3d 5d e1 2d bd
       -0.05245345 -0.045176897 0.055535067 -0.04245125
000030 86 1d 12 bd ae 9c 9d ba c1 00 0a bc 3b d0 d5 3c
       -0.035672687 -0.0012024844 -0.008423031 0.026100269
000040 ae 6a 59 bd 4e c3 f1 3c f8 46 02 3d 52 c1 46 bd
       -0.053080253 0.029512074 0.031805962 -0.04852421
000050 d5 ef a8 3b 5a 66 56 bd 03 90 d1 bc 18 c6 d8 3c
       0.0051555433 -0.052343704 -0.025581365 0.026461646
000060 0b f4 9b 3b 27 49 c2 3c 58 7c 49 3d 34 17 56 bd
       0.004759317 0.023716522 0.04919085 -0.052268222
000070 4d a5 76 3b ca a3 2a bd 56 bf 83 3c 9f f9 0f 3d
       0.0037635148 -0.041660108 0.016082447 0.035150167
000080 2b 7f e0 3c ee a3 3e bd 5e 10 ea 3c 74 b2 26 bd
       0.027404388 -0.046543054 0.028572258 -0.04069753
000090 76 9e 4b bd 04 c6 72 3d 52 34 59 bd f3 bb 3a bc
       -0.049711667 0.059270874 -0.053028412 -0.01139735
0000a0 02 8c 96 bb c5 68 03 3d 4a d8 71 bb d7 06 5b 3d
       -0.004594327 0.032082338 -0.00369026 0.05347332
0000b0 24 be 33 3c 91 5c 76 3d 14 b4 af 3c 81 b2 77 3c
       0.010970626 0.060146872 0.021448173 0.015118242
0000c0 41 29 00 bd dd 3e 34 bd fb 4e 80 bd b5 33 4c 3d
       -0.031289343 -0.044005264 -0.06265064 0.049854
0000d0 df d5 e3 3c 95 1f 3e 3d 5e 72 f2 3c 2f 8a 85 bc
       0.027811943 0.046416838 0.02959555 -0.016301243
0000e0 b9 f0 dd bc 47 14 46 3c 4e 56 79 bd ac 49 c6 bc
       -0.027092325 0.012089795 -0.060873322 -0.024205051
0000f0 35 b3 d6 ba fb 30 f7 ba 82 56 1e 3d 23 5f 13 bd
       -0.0016380312 -0.0018859202 0.03865672 -0.0359794
000100 cb ed 39 bb c6 31 b8 bb 83 36 ff 3c b8 21 f0 3b
       -0.0028370495 -0.005621168 0.031153923 0.0073282383
000110 a5 76 4d 3c 28 1a 88 3c c6 fa ed bc c2 b7 0a 3d
       0.012540494 0.016614035 -0.029050242 0.03386665
000120 fd 6e 2d 3d 90 d2 3f bd 2a 92 1e 3d f6 b4 7b 3d
       0.042342175 -0.046831667 0.03871361 0.061451875
000130 29 14 84 bd 54 f5 05 bd 04 2c 12 bb a1 b0 aa bc
       -0.06449158 -0.032704666 -0.0022304067 -0.020836176
000140 46 a3 4d bd 47 02 a3 bb ea 48 66 bc bd 82 1c bd
       -0.050204538 -0.0049746367 -0.01405547 -0.03821062
000150 5e d4 19 3d 21 4a 8d bc c7 3c 2d 3c e5 f6 05 bd
       0.037556045 -0.017247261 0.0105735725 -0.03270616
000160 18 40 2c bd d6 ff 5e bd 49 bb e1 bc d8 25 17 3d
       -0.042053312 -0.054443203 -0.027555125 0.036901325
000170 1b fb 3f bd a9 03 ae 3c 1e a3 52 3d 7c 95 84 3d
       -0.046870332 0.02124198 0.051425092 0.064738244
000180 23 97 4a bd 1f d8 f8 bc 9e 37 5b 3d 53 82 69 bc
       -0.04946054 -0.030376492 0.053519838 -0.014252263
000190 0b 66 80 bd a3 8f 04 bd 74 06 0b 3d ca 73 42 bd
       -0.06269463 -0.032363545 0.0339417 -0.047473706
0001a0 cb 51 19 3d 5d c6 58 3d 34 a4 2a 3d ea 4f 17 bd
       0.03743152 0.05292355 0.041660503 -0.036941446
0001b0 63 30 b5 bc 70 3d ea bc ba c8 1b 3d 59 b1 26 3d
       -0.0221178 -0.028593749 0.038033225 0.040696476
0001c0 5b b4 6e bd b8 d9 3c 3d 61 d1 00 3d 82 6c 68 3c
       -0.05827747 0.04610607 0.03144968 0.0141860265
0001d0 28 c6 04 bc 8d 3f 4a 3d 00 ef 10 3d 68 e6 38 bd
       -0.008103885 0.049377013 0.03538418 -0.045141608
0001e0 42 a4 80 bc 42 8d ef 3c f9 04 ff 3c 8b c3 77 3d
       -0.015703324 0.029242162 0.0311303 0.06048922
0001f0 c2 80 cd 3c 8e cf a1 3b 82 a8 a7 3c ef 3d 82 3d
       0.02508581 0.0049380725 0.020466093 0.06359469

mlp.2.weight f4 [64, 128]
000000 60 2a e5 bc 57 ff 3f bd 40 6d bd bc ac 8d 98 3d
       -0.027974308 -0.04687437 -0.023123384 0.07448897
000010 91 07 e6 bc 2b db 02 3d ca ed 8e 3c 1d 5a 86 3c
       -0.02807978 0.031947296 0.017447371 0.016400391
000020 e7 43 69 3c 98 78 5d 3d 7b 33 a2 3d fe 73 6c 3d
       0.014237381 0.054070085 0.07919975 0.057727806
000030 f2 21 a9 bc 40 19 83 3d b1 e9 a4 3c 21 ef 44 3c
       -0.02064607 0.064013004 0.020130964 0.012019903
000040 24 ba 97 bd b4 68 2f 3d 12 41 9c bd 19 49 0f bd
       -0.074085504 0.042824462 -0.07629599 -0.03498182
000050 28 89 89 3c 2a d5 99 bd 31 8d d3 bc c8 61 ee bc
       0.016789034 -0.07511361 -0.025824161 -0.02909936
000060 28 36 88 bc ec ef 72 3d 14 1b ae 3d 21 cb 13 bb
       -0.016627386 0.05931084 0.085012585 -0.0022551494
000070 2b 61 b8 3c db b3 f0 3a 15 19 45 3c f3 d3 22 3d
       0.02250727 0.0018364148 0.012029906 0.03975291
000080 fb 34 eb bb 5d a8 79 bc 6e 4f ba 3c b9 ff e3 3b
       -0.0071779466 -0.015237895 0.022742953 0.0069579748
000090 b7 da a0 bd 04 b5 4f bd 39 d1 f4 3c 1b c0 a2 bd
       -0.078542165 -0.05070974 0.029884921 -0.079467975
0000a0 f5 b1 85 bd bc 24 2e 3d 82 79 19 bc f1 38 61 bd
       -0.06528083 0.0425155 -0.009367349 -0.054985944
0000b0 b8 30 a5 3d 21 8c a9 3c 32 75 8f bd 37 44 19 bd
       0.08065933 0.020696701 -0.07004775 -0.03741857
0000c0 60 1a 97 bc d5 ad 80 3c 7c 36 2d bd 39 9c 06 bd
       -0.018445194 0.01570789 -0.04228829 -0.03286383
0000d0 10 ad 67 3d ca ef 4e 3d c0 8c b7 3d 3e fb 58 bd
       0.05656153 0.05052165 0.08962393 -0.05297398
0000e0 69 ac a3 bd 69 f4 5e bd 73 46 5c 3d 2c fe 8e 3d
       -0.07991869 -0.054432306 0.053778123 0.06982073
0000f0 0f 71 84 bd f0 50 21 3d ee 5d 26 ba 81 53 8e bc
       -0.06466877 0.03938383 -0.0006346394 -0.017373802
000100 69 62 e9 3c 06 03 44 bc 38 0a f4 bb 08 61 54 3d
       0.028489308 -0.0119636115 -0.007447507 0.05185035
000110 fc 2f 61 bd 78 91 8b bc 05 05 3b bd b4 78 f1 3c
       -0.054977402 -0.017037138 -0.045659084 0.029476501
000120 d4 80 8d bd 76 05 ab bd 9d 63 ac bd a5 41 31 bd
       -0.06909338 -0.08350651 -0.08417437 -0.043275494
000130 ed f5 8a bd ef 0a 43 bd 8f 47 85 3d 5b e8 7a bd
       -0.06785188 -0.04761785 0.06507789 -0.061256748
000140 0d cc dd bc 4e 5b 3d 3d a4 30 62 bc 83 bf 1f bd
       -0.027074838 0.046229653 -0.013805542 -0.039001
000150 5c bb 77 3d c8 12 88 3c a4 02 82 bc 92 1f 6a bd
       0.060481414 0.016610518 -0.0158704 -0.057159014
000160 fe cb 2e 3d b4 4c a4 bd 30 03 b3 bc 7e 09 83 3d
       0.04267501 -0.080224425 -0.021852106 0.06398295
000170 9a 36 23 bd c4 e6 20 3c d5 61 8a bd a8 8e a8 3d
       -0.039846994 0.009820644 -0.06756941 0.082303345
000180 96 e1 92 bd 1b 53 b8 3d 68 06 89 bd a5 d7 8a bd
       -0.07171933 0.09000226 -0.06690675 -0.06779412
000190 ce 4c fe 3c 89 ad 9c bd 7c 77 35 bc 60 08 09 3b
       0.031042483 -0.07650287 -0.011075851 0.0020909533
0001a0 74 b2 b5 3d b7 47 82 3d eb f9 c2 3c 31 17 0c bd
       0.08871928 0.06361335 0.02380081 -0.034201805
0001b0 c7 c8 0b 3b 5e 57 8a ba 0c d1 9a 3d 82 da dd bc
       0.002132939 -0.0010554602 0.07559404 -0.027081732
0001c0 91 53 34 bd 4c 41 84 bd 69 96 1f bc aa 71 5f bd
       -0.044025008 -0.06457767 -0.00974045 -0.054551758
0001d0 6f ab 81 3d 19 2c 2b ba e8 0a 02 bd c8 c5 a8 bc
       0.063315265 -0.00065297034 -0.031748682 -0.020602122
0001e0 57 84 c5 bc 5c ff 99 3d 31 7f a0 bc 71 49 3a 3d
       -0.024110956 0.07519409 -0.0195919 0.045480195
0001f0 e0 bf 78 3d 11 45 82 3d 0d f5 a0 bd a5 40 24 3c
       0.06072986 0.063608296 -0.0785924 0.010025178
000200 a5 3e a5 3d 30 10 91 3d e4 2d a1 3d 02 06 80 bc
       0.08068589 0.07083166 0.07870081 -0.015627865
000210 9f c5 d3 bc 5b 73 31 bd c0 bd 14 3c 3e ea a8 3d
       -0.025851069 -0.043322902 0.009078443 0.08247803
000220 19 76 b1 3c d7 29 49 bc 5a 83 88 bd e2 f0 89 3d
       0.021662759 -0.012278042 -0.06665678 0.06735398
000230 30 b5 55 3d 54 5c fd bc 28 4f 38 3d 11 99 19 bd
       0.052174747 -0.030927815 0.044997364 -0.03749949
000240 d1 dc 3a bd 94 01 77 3d ae fd 5d 3c 20 bb 87 3d
       -0.045620743 0.06030424 0.0135492515 0.06627488
000250 6d 37 7b 3d 03 d0 5f 3d 41 3c b4 bd 95 5a bd bc
       0.061332155 0.054641735 -0.08800555 -0.023114482
000260 4f 95 72 bc a6 92 99 bd 6f ec 24 bd c2 6d 92 ba
       -0.014806106 -0.07498674 -0.040264543 -0.0011171626
000270 8a 45 9c 3c d4 cb 3b 3d 43 33 8e 3d 06 7c 66 3c
       0.019076128 0.045848683 0.06943371 0.014067655
000280 c3 17 9b bc d9 7a 5f 3d c9 e6 21 3d 54 23 69 bd
       -0.018932229 0.054560516 0.039526735 -0.056918457
000290 76 4c 84 3d 30 9f 9f bc a9 32 33 3d 6d b5 d1 3a
       0.06459896 -0.019485086 0.043749485 0.0015999504
0002a0 23 ca 53 bd f3 bc 9f 3d 27 34 b5 bc 17 d8 9e bc
       -0.051706444 0.07799711 -0.022119595 -0.019390149
0002b0 1c ba 8f 3d ac 8e 7e 3d fe 7c 45 bc a6 88 3f bd
       0.070179194 0.06214778 -0.012053726 -0.046761177
0002c0 12 4f 0c 3d c9 b4 82 3d d3 20 6a 3d 9b 85 78 3d
       0.034255095 0.06382138 0.05716021 0.06067429
0002d0 08 5d f8 3b 4f 97 4b 3c 28 33 16 3d 0b f4 a3 bd
       0.0075794496 0.0124262115 0.03666988 -0.08005532
0002e0 07 d6 9e 3d 94 2d 88 3d cd 80 9a 3c 69 70 09 bb
       0.07755666 0.06649318 0.018860245 -0.0020971543
0002f0 b9 6d 79 3d a9 66 28 3d 34 c2 9e bd b6 b3 a6 bd
       0.060895655 0.04111353 -0.07751885 -0.08139746
000300 31 4b a6 3d 7b 0e c3 bd 63 77 be bd 52 67 99 bd
       0.081198104 -0.09524246 -0.09300115 -0.0749041
000310 62 76 e5 bc fe 63 6e 3d d3 fd 4c bd 61 db 99 3d
       -0.02801055 0.05820083 -0.050046753 0.07512546
000320 e4 07 bf 3c 61 89 cf 3c 53 a5 fe bc 01 59 35 3d
       0.023319192 0.025334062 -0.031084692 0.044274334
000330 f7 2d 29 3d 3d d4 7a bd 15 1f 83 3b e1 ef 55 bd
       0.0413036 -0.061237562 0.004001508 -0.05223072
000340 0e 42 a0 3d 0c b3 4c 3d 1c 0e 15 bd 02 ab 07 bd
       0.07825099 0.04997544 -0.03639041 -0.03312207
000350 8c cf a0 3d 4b f0 93 bd d4 06 f3 bc 0f 5e b3 3c
       0.078520864 -0.072235666 -0.029666342 0.021895437
000360 92 27 80 3d 40 72 6d 3d 7e a4 91 bd 14 8e 6b bc
       0.062575474 0.057970285 -0.071114525 -0.014377136
000370 1c 04 bc bc e1 92 48 bb 86 03 8f 3b d3 cf 1d bc
       -0.022951178 -0.0030605125 0.0043644337 -0.009632069
000380 d9 e7 1b 3d 9e 58 62 bd b7 9f bc bd 14 90 83 3d
       0.038062904 -0.055260293 -0.09210151 0.06423965
000390 7b ca 48 3d 31 d1 71 bc 86 1e 4e bb e6 33 8b bc
       0.049021225 -0.014759348 -0.00314513 -0.01699252
0003a0 a3 73 67 bd d2 f8 8b 3d 8d 92 84 bd e9 c6 97 3c
       -0.056506764 0.06834568 -0.06473265 0.018527465
0003b0 d8 14 6a 3b 25 6a 97 bd 35 64 ae bb b4 18 48 3d
       0.003571799 -0.07393292 -0.005322004 0.048851684
0003c0 40 bf 81 ba 27 32 1d bd f8 6c 8b b8 5e 51 14 3c
       -0.0009898916 -0.038377907 -6.6483335e-05 0.009052603
0003d0 65 da b8 bd ae 65 9c 3d 59 80 3b 3c e2 ed 93 bd
       -0.090260305 0.07636581 0.011444175 -0.07223107
0003e0 ac 62 36 3c 93 91 4b bd 0d a1 23 bd 65 23 7f bd
       0.011131924 -0.049699377 -0.039948512 -0.062289614
0003f0 59 96 84 3d 2d c7 a3 bc 86 b8 8f bd cf 47 0a bd
       0.06473989 -0.019992435 -0.07017617 -0.03375989

mlp.2.bias f4 [64]
000000 76 1e 4c 3d 5c 9e 42 bd b8 c8 fb bb 1e 6b 8d 3c
       0.049833737 -0.047514305 -0.0076838396 0.017262992
000010 f8 46 2c 3d 7f 7f 81 bd bc 3c 53 3c 0b b0 17 bc
       0.04205987 -0.06323146 0.012892898 -0.0092582805
000020 1c c4 b7 3b 5d c4 2f bd cd 02 22 3d c6 b2 7a 3d
       0.005608095 -0.042911876 0.039553452 0.061205648
000030 95 52 b2 3d 6b 8d a1 3d bb a8 b2 3c e8 77 76 bb
       0.087071575 0.078883015 0.021808973 -0.003760809
000040 51 34 1a bb 97 4e c0 3d c1 e9 a6 3d c2 37 b3 bd
       -0.0023529718 0.0938999 0.08150054 -0.08750869
000050 9c d4 60 3d c4 c8 fd 3c e9 4c 02 3c 82 89 93 3d
       0.05489026 0.030979522 0.007952907 0.07203962
000060 95 94 7e 3d 96 2a 94 3d 3e f0 0b 3b 40 b9 49 3c
       0.062153418 0.07234685 0.0021352912 0.012312233
000070 77 53 97 bc 69 74 82 bd 7d 3d b5 3d 12 f4 9d 3d
       -0.018472416 -0.0636986 0.088496186 0.07712568
000080 c2 17 3a 3b 47 eb 28 3d ab 41 2c bd 9f d3 07 bd
       0.0028395508 0.041240003 -0.042054813 -0.033160802
000090 b7 9d 5c bc 4a ca 9c 3d d1 ee d6 3c 9d ca 84 3d
       -0.0134653365 0.07655771 0.026236923 0.06483958
0000a0 54 0d 30 bd c4 08 df 3c b4 47 9d 3d 93 c8 15 3d
       -0.04298146 0.02722586 0.07679692 0.036568236
0000b0 cc 9a 5d 3d 80 28 35 3c 8b 7d 1f bc d3 06 95 3d
       0.054102704 0.011057019 -0.009734522 0.07276692
0000c0 1e 1b 90 bd b5 61 6e 3d b4 7b ac 3d e9 c0 71 bd
       -0.07036422 0.05819865 0.08422032 -0.059021864
0000d0 27 00 4c 3b 35 43 f7 3b 30 d4 47 bc f2 e2 9f 3d
       0.003112802 0.0075458535 -0.012196586 0.07806958
0000e0 52 c7 c3 bc 1b cb 84 3c 72 8e 2b bd 58 d8 92 3d
       -0.023898754 0.01621013 -0.041883893 0.071701705
0000f0 7e ac 4f bc 42 a8 6f 3d 17 a1 03 bd d4 18 2e bb
       -0.012675403 0.058510073 -0.03213605 -0.0026565092

mlp.4.weight f4 [1, 64]
000000 eb f0 c2 3d 3e 9d 5d bd 35 b7 56 3d 1c 79 37 bb
       0.09518608 -0.054105036 0.052420814 -0.002799577
000010 04 81 21 3d ee 36 7a 3d 31 c1 ec 3d 6a fe 9d 3d
       0.03942968 0.06108754 0.11560286 0.07714541
000020 ec 87 ae bc 0c e0 8a 3d be d8 ff 3d f6 08 fd bc
       -0.021305047 0.06781015 0.12492512 -0.030888062
000030 34 67 e0 3d 95 8b 54 bd 21 9c ac 3d b7 73 c3 bd
       0.109571844 -0.05189093 0.08428217 -0.09543555
000040 ef 36 ae bd b7 24 cb 3c f4 80 e9 bd 94 c3 46 3c
       -0.085065715 0.02479778 -0.11401549 0.01213159
000050 80 e6 2e bd 1d 8b 1e bd 1e a7 2f 3d d8 78 8e bd
       -0.04270029 -0.038706888 0.042883985 -0.06956643
000060 db bb 9a 3b 1d fc 45 3c a9 65 5a 3d b0 3f 81 bd
       0.004722101 0.012084034 0.053319607 -0.063109756
000070 d5 38 fb bd 55 72 13 3d 0a d6 79 3d fd ef 3d 3d
       -0.12266699 0.035997707 0.06099514 0.04637145
000080 f3 f9 88 3d a4 a9 2c 3d c1 99 b0 3d ee cc a7 3d
       0.06688299 0.04215397 0.08623076 0.08193384
000090 09 34 4a bd 3c fd 58 3c d4 e4 75 3d 94 76 e7 3d
       -0.04936603 0.0132439695 0.06003268 0.11301914
0000a0 73 0d 0a 3c 58 c5 b8 bc 6e 8d a1 b9 86 32 70 bd
       0.008426058 -0.022555038 -0.00030813686 -0.058641933
0000b0 f4 24 ff 3d 0b 30 8f bd d4 63 a4 bc 5f b9 66 bd
       0.1245822 -0.06991585 -0.020067133 -0.056329127
0000c0 0b 6f 4e bd 1c ba d1 3d 3d ee 5c bd 60 63 88 bd
       -0.050398868 0.10240576 -0.05393814 -0.06659579
0000d0 14 af 74 bb f3 5c 6e 3d b2 45 e9 3c 24 bd e8 3d
       -0.00373358 0.058194112 0.028475616 0.11364201
0000e0 b3 b4 d6 bd f1 1e 56 bd 20 39 15 bd 08 29 01 3e
       -0.104836844 -0.0522756 -0.03643143 0.12613308
0000f0 8d 15 b3 bd 3c 58 de 3c f5 17 6d bc 33 c5 ce bd
       -0.08744345 0.027141683 -0.014471044 -0.100962065
