best_mlp.pth (torch, 509586 bytes, 5 tensors)

mlp.0.weight f4 [128, 924]
0	0x37d9c5b9	2.5960488e-05
1	0x3c8910c8	0.016731635
2	0xbce0bc72	-0.027433608
3	0xbccb9d5b	-0.024855306
4	0xbc805f62	-0.015670482
5	0x3c0269cc	0.007959794
6	0xba023999	-0.0004967689
7	0x3cd9a449	0.026567595
8	0xbb06d860	-0.0020575747
9	0x3c24d0fe	0.010059593
10	0xbc38a9d8	-0.011270963
11	0xbbc1de51	-0.0059163948
12	0xbcf8ced2	-0.030372057
13	0xbcb65332	-0.022256467
14	0xbc5e214f	-0.013557746
15	0xbab847bf	-0.0014059468
16	0x3c4a4b02	0.012346985
17	0x3c9fb27f	0.019494293
18	0xbcb47f6d	-0.022033418
19	0xbc86ed70	-0.01647064
20	0x3c3d32f3	0.011547792
21	0x3cd98793	0.026553905
22	0xbc1325d6	-0.008981189
23	0x3cca67b6	0.024707656
24	0xbbb1da70	-0.005427651
25	0x3a59238a	0.0008283189
26	0x3ce134f4	0.02749107
27	0xbcfb73a9	-0.0306948
28	0xbcaf1e91	-0.02137688
29	0xbbf09e7d	-0.007343112
30	0xbc4a155e	-0.012334196
31	0x3cef61b7	0.029221399
32	0xbc982582	-0.018572573
33	0xbc68b169	-0.014202454
34	0xbcb5f883	-0.022213226
35	0xbcf870a3	-0.030327147
36	0xbc964179	-0.018341767
37	0x3cf2c147	0.029633177
38	0x3c5abc93	0.013350624
39	0x3c871fe1	0.016494693
40	0x3b36a192	0.00278673
41	0xbc8e0234	-0.017335035
42	0x3bb67d8b	0.005569165
43	0xbd089073	-0.033340883
44	0xbcc81fe7	-0.024429275
45	0xbc8cf0de	-0.017204698
46	0x3cac3dc1	0.02102554
47	0x3c8c70b5	0.017143587
48	0xbc759d30	-0.01499109
49	0xbaffb488	-0.0019508759
50	0x3c9a3f94	0.018829145
51	0x3d0653a1	0.0327946
52	0x3c53de08	0.012931354
53	0x3aead166	0.0017915189
54	0x3ca1e0b6	0.01976047
55	0xbca020bb	-0.019546857
56	0x3bdeb84d	0.0067968727
57	0xbcd903d9	-0.026491093
58	0xbcbecafe	-0.023290154
59	0xbc91c0f8	-0.01779221
60	0x3c46cee6	0.012134289
61	0x3c4956a3	0.012288722
62	0xbca5f2b0	-0.020257324
63	0x3c2ac133	0.010422039
64	0x3c9b01c3	0.018921738
65	0xbb375ab7	-0.0027977654
66	0xb898ad2c	-7.2801806e-05
67	0x3c05e699	0.008172655
68	0x3cafd866	0.021465492
69	0x3cfeed72	0.031119082
70	0xbccfa723	-0.025348252
71	0xbc7086bc	-0.014680561
72	0x3c490a28	0.012270488
73	0x3cdd48d4	0.027012266
74	0x3cecb93e	0.028896924
75	0x3cdc3890	0.02688244
76	0x3bc963bd	0.006145923
77	0xbcf09b7f	-0.029371021
78	0x3a55c54a	0.00081547035
79	0xbca7dc87	-0.020490898
80	0xbcfc2f0a	-0.030784149
81	0x3cd9b70f	0.026576547
82	0x3cba1931	0.02271709
83	0xbd07239c	-0.032992944
84	0x3bbb9d57	0.0057255435
85	0xbbd39d9a	-0.0064579966
86	0xbbbd1b4b	-0.005771076
87	0xbc80a539	-0.015703784
88	0x3c1e1fce	0.0096511375
89	0xbca6af5f	-0.020347295
90	0x3c482171	0.012215004
91	0x3c85064e	0.016238358
92	0x3cba6d92	0.022757325
93	0x3c30e91e	0.010797767
94	0xbcfd7474	-0.030939318
95	0xbcb2b5ff	-0.021815298
96	0x3c7a256b	0.01526771
97	0x3bd241af	0.0064165215
98	0xbcd233d4	-0.02565948
99	0xbcb0aeab	-0.021567663
100	0x3cf8224a	0.030289788
101	0x3cb395b6	0.021921974
102	0xbc669aaf	-0.014074965
103	0xbc2accbe	-0.010424791
104	0xbd02011f	-0.03173935
105	0xbab19f90	-0.0013551582
106	0xbcdd0ef8	-0.026984677
107	0xbccf2418	-0.025285766
108	0xbafdfc29	-0.0019377518
109	0x3b15dc73	0.0022866994
110	0xbc812efa	-0.01576947
111	0x3c9e7752	0.019344006
112	0xbca075f6	-0.019587498
113	0x3ced0775	0.02893422
114	0x3cb5c223	0.022187298
115	0xbce88b24	-0.02838666
116	0xbc374be0	-0.011187524
117	0x3a232e82	0.0006224887
118	0x3ba25c21	0.0049548303
119	0x3c065c1d	0.008200672
120	0x3c6082cc	0.013703059
121	0x3b63a4f5	0.0034735773
122	0xbc90c564	-0.017672248
123	0x3c836981	0.01604152
124	0xbcf90614	-0.030398406
125	0xbca3931a	-0.019967604
126	0xbc06dee1	-0.008231849
127	0xbc98c6b9	-0.018649446
128	0xbc475931	-0.012167261
129	0xbcdee487	-0.02720858
130	0xbbdc7ba8	-0.006728608
131	0x3ba023f8	0.0048871003
132	0xbcb2dac2	-0.021832827
133	0xbb20b404	-0.002452136
134	0x3caeceee	0.021338906
135	0xbb57bc66	-0.003291869
136	0x3a4ee18d	0.0007891886
137	0xbbb3ebbb	-0.0054907477
138	0x3b8ee649	0.004360948
139	0x3ca9e8d1	0.020740898
140	0x3d00c152	0.031434365
141	0x3ca649d9	0.020298885
142	0x3cfcefa8	0.030875996
143	0xbb462c91	-0.0030238966
144	0xbd0555b7	-0.032552447
145	0xbc86d2cc	-0.016457938
146	0x3cb8c5a3	0.022555178
147	0x3abdfc51	0.0014494752
148	0xbc7dc8a9	-0.015489736
149	0xbcc36c3f	-0.023855327
150	0xbd038c3b	-0.032116156
151	0xbcdef373	-0.027215695
152	0xbbb8087b	-0.0056162453
153	0x3c9c5083	0.01908136
154	0x3c956ceb	0.018240413
155	0xbd0b28b8	-0.03397438
156	0x3ca98701	0.020694258
157	0xbccbe84c	-0.024891041
158	0xbbdb138f	-0.006685681
159	0xbc7db0c5	-0.01548404
160	0xbbdcc85c	-0.006737752
161	0xbbecaf5a	-0.007223052
162	0xbd01f8e4	-0.0317315
163	0xbce7f4e3	-0.028315013
164	0xbbacc854	-0.0052729044
165	0xbb11f76d	-0.0022272721
166	0xbc8d3df4	-0.017241456
167	0x3c4824d5	0.012215813
168	0xbcf0552f	-0.029337494
169	0xbad54935	-0.0016272428
170	0x3cea12b0	0.028573364
171	0xbc6669f8	-0.014063351
172	0x3cdac82d	0.02670678
173	0x3c3513a8	0.01105205
174	0xbcf1f0c0	-0.029533744
175	0x3c9ce390	0.019151479
176	0xbb404d8a	-0.0029343092
177	0xbc5a6b38	-0.013331227
178	0x3ccc9e34	0.02497778
179	0xbcd545c5	-0.026034245
180	0x3b964bc3	0.004586668
181	0xbc01e3d2	-0.007927852
182	0x3cbcba19	0.023037957
183	0x3c3b454b	0.011430095
184	0x3c801328	0.015634134
185	0x3c3065c3	0.010766449
186	0xbbfa6851	-0.00764183
187	0xbc147f1f	-0.009063511
188	0xbce15fb9	-0.027511464
189	0x3c8bc495	0.017061511
190	0x3cc3dd06	0.023909103
191	0x3cb92246	0.02259935
192	0xbcbf1f4a	-0.02333035
193	0xba9b6222	-0.0011854807
194	0xbcd0cb3e	-0.025487538
195	0xbc95cd1d	-0.018286282
196	0xbc9ace9d	-0.018897349
197	0x3c29308b	0.010326515
198	0xbcb5bba0	-0.022184193
199	0xbab29354	-0.001362423
200	0xbad3cc67	-0.0016158939
201	0x3ca6a9b8	0.0203446
202	0xbcca72b7	-0.024712903
203	0xbcb50d77	-0.022101147
204	0xbca286fd	-0.019839758
205	0x3cc7b9d1	0.024380596
206	0xbc57859b	-0.013154413
207	0x3ce7d30b	0.028298875
208	0x3c54372f	0.01295261
209	0x3b070103	0.0020599968
210	0xb97d3933	-0.00024149269
211	0xbc158cec	-0.009127837
212	0x3b635756	0.0034689507
213	0xbbfe2e58	-0.0077569894
214	0xbb69f24f	-0.0035697406
215	0x3ba9be05	0.005180123
216	0xbce4d728	-0.027934626
217	0xbc999b05	-0.018750677
218	0x3cc7816c	0.024353705
219	0xbcd9f8da	-0.02660792
220	0xbb2302f2	-0.0024873582
221	0x3cf4ddac	0.029890858
222	0x3c1d1271	0.009586916
223	0x3a45da86	0.0007547516
224	0xbce75188	-0.02823712
225	0x3c7bff31	0.015380667
226	0xbcaad24b	-0.020852229
227	0xbc239051	-0.009983138
228	0xbc65fd94	-0.0140375085
229	0xbbbbe164	-0.0057336558
230	0x3a06f907	0.00051488023
231	0x3ce23e5a	0.027617622
232	0x3b9ebcd0	0.0048442855
233	0x3cfc7b80	0.030820608
234	0x3c99f7ef	0.018794982
235	0xbca5df81	-0.020248177
236	0x3c8186b0	0.015811294
237	0xbcad41b0	-0.021149486
238	0xbc646230	-0.013939425
239	0x3be70edc	0.007051332
240	0x3c272e66	0.010203933
241	0x3cc82d58	0.024435684
242	0xbbed9f65	-0.0072516673
243	0xba73c7d9	-0.0009299494
244	0x3c9cc82b	0.019138416
245	0xbcf84653	-0.03030697
246	0x3cb0bad2	0.021573458
247	0xbcde1da4	-0.027113743
248	0x39ac2007	0.0003283026
249	0xbc07199e	-0.008245854
250	0xbca0c0c9	-0.019623177
251	0x3b88b07d	0.0041714297
252	0x3ce1151a	0.027475882
253	0xbc2c913f	-0.010532676
254	0xbca2ed3c	-0.019888513
255	0xbc583b82	-0.0131977815

mlp.0.bias f4 [128]
0	0xbd020341	-0.031741384
1	0xb9addac8	-0.00033160136
2	0x3c341d70	0.010993347
3	0xbbc48886	-0.00599772
4	0xbcb81041	-0.022468688
5	0x3cabdc41	0.020979049
6	0x3bc6a323	0.006061928
7	0xbc774cb5	-0.015093972
8	0xbbbf06d0	-0.0058296695
9	0x3ce6dcc3	0.02818144
10	0x3cc1ee9e	0.023673352
11	0xbcca2461	-0.02467555
12	0x3c9059c7	0.017620934
13	0x3cf387b0	0.029727787
14	0x3be201cf	0.0068971883
15	0x3c20719a	0.00979271
16	0xbcb4dd8c	-0.022078298
17	0xbb997330	-0.004682921
18	0x3c7ab63d	0.015302238
19	0x3cb6f6b8	0.022334442
20	0xbcbcdd6f	-0.023054807
21	0xbcda11f6	-0.026619893
22	0xbcb724e1	-0.022356452
23	0x3ccdc3a9	0.025117712
24	0xbc060a3b	-0.00818115
25	0x3acd72d7	0.0015674484
26	0xbcdd81b0	-0.027039379
27	0xbca39777	-0.019969685
28	0x3d094b14	0.033518866
29	0xbadf1382	-0.0017019364
30	0xbc829789	-0.015941398
31	0x39c070b6	0.0003670507
32	0x3cea3870	0.028591365
33	0x3d026774	0.03183694
34	0x3c41b3ed	0.011822683
35	0x3c77f40a	0.015133867
36	0xbce4c038	-0.027923688
37	0x3c9e4b1f	0.01932293
38	0xbb64de4e	-0.0034922543
39	0x3cee00d9	0.029053139
40	0x3c7f6cbe	0.015589891
41	0x3c8e5c3a	0.017377961
42	0x3c9104e6	0.017702531
43	0x3cb2d04a	0.021827836
44	0x3cf0cfb7	0.029395921
45	0x3c945944	0.018108971
46	0x3cf1e580	0.02952838
47	0xbc516e46	-0.012782639
48	0xbc6d2b39	-0.014475637
49	0xbd06adce	-0.032880597
50	0x3c915294	0.017739572
51	0x3b820a44	0.003968509
52	0xbce7de39	-0.028304206
53	0x3c7df7ed	0.015501005
54	0xbbd3cb8a	-0.0064634727
55	0x3ceda601	0.02900982
56	0x3be9677a	0.007122931
57	0xbb8bceb0	-0.0042665824
58	0x3cb85ee1	0.02250618
59	0x3b94e206	0.0045435457
60	0xbca3cb44	-0.019994386
61	0x3ce3fffd	0.027832026
62	0xbce7034a	-0.02819981
63	0x3978b3f9	0.00023718168
64	0x3c009cd9	0.007849895
65	0x3c729213	0.014805335
66	0x3c4415b7	0.011968068
67	0x3c2985e0	0.01034686
68	0xbb85885b	-0.0040750927
69	0x3cb07c0e	0.021543529
70	0xbc083d50	-0.008315399
71	0x3c04b6df	0.0081002405
72	0xbc2ef938	-0.010679536
73	0xbac9ed8a	-0.0015405875
74	0x3ba1fa7f	0.0049431915
75	0x3c329bcb	0.010901402
76	0x3cef579d	0.029216582
77	0xbcaca788	-0.021075979
78	0x3cb743a5	0.022371123
79	0xbbf41d89	-0.00744981
80	0x3bf522f7	0.007480975
81	0xbc837080	-0.016044855
82	0x3c86756c	0.016413413
83	0xbc85b5b3	-0.016321993
84	0x3c6a5f16	0.014304897
85	0x3c87d1dc	0.016579561
86	0xbc33f8a8	-0.010984577
87	0x3cc1a079	0.02363609
88	0xbae68fd8	-0.0017590476
89	0x3d083f9b	0.033263784
90	0x3cc189c2	0.023625258
91	0xbcb092a5	-0.0215543
92	0x3b7192fb	0.0036861289
93	0xbcbec951	-0.023289355
94	0x3cac53dd	0.021036083
95	0xbcb4c160	-0.022064865
96	0xbcbece6f	-0.023291795
97	0xbbeb9c78	-0.0071902834
98	0x3cb59ecb	0.022170445
99	0x3c590838	0.013246588
100	0x3cf9ce61	0.030493917
101	0xbb527b92	-0.003211711
102	0x3c9e4953	0.019322073
103	0x3cbe6adb	0.023244312
104	0x3cca97e7	0.024730636
105	0x3bbb5eb8	0.0057180785
106	0x3ca3b9e4	0.0199861
107	0xbcee0977	-0.029057248
108	0x39286c96	0.0001606218
109	0xbc3c630b	-0.011498223
110	0x3c953b95	0.018216887
111	0x3b8cc6d7	0.0042961645
112	0x3c813e0f	0.015776662
113	0x3c8f9d4d	0.017531062
114	0xbbe68928	-0.0070353933
115	0xbcae5479	-0.021280514
116	0x3c926f47	0.017875327
117	0x3cdd0266	0.026978683
118	0xbc6d2292	-0.014473574
119	0x3b3c6cc3	0.002875135
120	0x3b0a1fe8	0.0021076147
121	0x3ce41bb1	0.027845236
122	0xbbdd9282	-0.00676185
123	0x3c8e5da2	0.017378632
124	0x3d0ce4fb	0.03439806
125	0xbcba9b98	-0.022779271
126	0x3c188a8d	0.009310377
127	0xbac5e594	-0.0015098327

mlp.2.weight f4 [64, 128]
0	0x3d81997e	0.063281044
1	0xbd15577e	-0.036460392
2	0x3d603734	0.054740146
3	0x3b4d8980	0.0031362474
4	0xbd6ae771	-0.057349626
5	0x3d06b755	0.032889683
6	0x3d093a8b	0.033503097
7	0x3d5ad28a	0.053423442
8	0xbd113fdb	-0.035461288
9	0x3c6b8b4a	0.014376471
10	0xbce301d7	-0.027710838
11	0x3d84b555	0.06479899
12	0x3d94a0e1	0.07257248
13	0xbd6840e2	-0.056702502
14	0x3d6f389d	0.0584036
15	0x3dabec30	0.083946586
16	0xbcdec86d	-0.02719518
17	0x3d8f3c9a	0.06993981
18	0xbd5a3f04	-0.053282753
19	0xbd192a79	-0.03739402
20	0x3d13b589	0.036061797
21	0xbc8a18b6	-0.016857486
22	0xbd3a2b86	-0.045451663
23	0xbd1f5137	-0.038895812
24	0xbbe65b8d	-0.0070299567
25	0xbd4488fc	-0.0479822
26	0xbcde1ea2	-0.027114216
27	0xbd29e739	-0.041480277
28	0x3c523f01	0.012832404
29	0xbd400e57	-0.046888676
30	0x3dacd627	0.08439284
31	0x3cab5c3d	0.020918006
32	0x3d2ad203	0.04170419
33	0x3d927dd2	0.071529046
34	0x3d8ebf12	0.069700375
35	0x3d11c917	0.035592165
36	0x3d6494cb	0.055805963
37	0xbda2839c	-0.07935259
38	0x3c908637	0.017642124
39	0x3da10cbe	0.078637585
40	0xbd83d337	-0.064367704
41	0x3b492e4a	0.0030697756
42	0xbc99889e	-0.018741902
43	0xbd63237f	-0.055453774
44	0x3cf016eb	0.029307803
45	0x3d96ee80	0.07369709
46	0xbd7e30ca	-0.062058248
47	0xbca6ffe1	-0.020385684
48	0x3cc2529c	0.023721032
49	0xbd17fbe4	-0.037105456
50	0x3db37658	0.08762807
51	0x3d4fd6e5	0.05074205
52	0xbcb01fa0	-0.021499455
53	0xbd2a03b6	-0.041507445
54	0x3c28390d	0.010267508
55	0xbd7c5831	-0.061607543
56	0x3cb6609c	0.022262864
57	0x3d8904a4	0.06690338
58	0x3d141698	0.03615436
59	0xbd4f33bf	-0.05058646
60	0x3b0a28d2	0.002108146
61	0xbbb57674	-0.0055378024
62	0x3d3a78db	0.045525413
63	0x3cb39ed4	0.021926321
64	0x3d8ed7c6	0.06974749
65	0xbd9c0c3f	-0.07619523
66	0xbd1a4b8b	-0.0376697
67	0x3d761287	0.060076263
68	0x3db21234	0.08694878
69	0xbb8149a4	-0.003945546
70	0x3d078a6c	0.033090994
71	0xbdaad8b7	-0.08342116
72	0x3c8a8ff8	0.016914353
73	0xbcc98437	-0.024599178
74	0xbd673cc4	-0.056454435
75	0xbdac8d54	-0.08425394
76	0x3c58f1ce	0.0132412445
77	0xbcf73aa5	-0.030179331
78	0xbd1f53c1	-0.038898233
79	0x3ce1a85f	0.027546106
80	0xbb0dd9c9	-0.0021644703
81	0xbd8584e6	-0.06519489
82	0x3d3d2f01	0.046187405
83	0x3d3b3494	0.04570444
84	0x3d62c56a	0.05536405
85	0x3d3b24a1	0.04568923
86	0xbd7c654b	-0.061620038
87	0x3d116083	0.03549243
88	0xbce83f5c	-0.028350525
89	0x3d147423	0.03624357
90	0xbdafa000	-0.085754395
91	0x3cba0c83	0.022711044
92	0x3d9766fa	0.07392688
93	0xbcf45091	-0.029823573
94	0x3d1e6004	0.038665786
95	0xbd24e2cc	-0.040255353
96	0x3d7b2441	0.06131387
97	0x3d12ed1b	0.035870653
98	0xbd7585a8	-0.059941918
99	0xbd55e6f5	-0.05222221
100	0x3d066950	0.032815278
101	0xbdb49f0b	-0.088193975
102	0x3d975f62	0.0739124
103	0x3baaff2c	0.005218407
104	0x3db99efa	0.090635255
105	0xbd2de789	-0.042457137
106	0xbcf7c1e8	-0.030243829
107	0x3d07960e	0.033102088
108	0x3d577603	0.05260278
109	0x3d8cf2e8	0.06882268
110	0xbd4ef65d	-0.05052792
111	0xbbb10139	-0.005401757
112	0xbca29eb1	-0.01985106
113	0x3cc02ba2	0.023458306
114	0xbdae4592	-0.08509363
115	0x3d8204ca	0.0634857
116	0xbd5c517a	-0.05378864
117	0x3d11c9e8	0.035592943
118	0x3d84cbec	0.064842075
119	0x3cbafb00	0.022824764
120	0x3d37f3da	0.04491029
121	0x3d80a854	0.06282106
122	0xbd1f0ec3	-0.038832437
123	0x3d99ee23	0.07516124
124	0xbbda7e9d	-0.0066679255
125	0x3c8c9496	0.017160695
126	0x3c6be6f2	0.014398323
127	0xbd182bbd	-0.037151087
128	0xbdae0931	-0.08497847
129	0x3d7e612f	0.0621044
130	0x3d3441c7	0.044008043
131	0x3c1ec260	0.009689897
132	0xbd6c89c9	-0.05774859
133	0x3d286dd2	0.041120358
134	0x3dae1105	0.0849934
135	0xbdab6ad5	-0.08369986
136	0x3d94104f	0.07229673
137	0x3b7cbcc7	0.0038564669
138	0x3c951639	0.018199073
139	0x3c289075	0.0102883475
140	0xbd822f7e	-0.06356715
141	0xbcafc20c	-0.021454833
142	0x3b3f7f5e	0.0029220204
143	0xbb0dd23a	-0.0021640197
144	0xbcb54c88	-0.02213122
145	0xbd8fd50b	-0.070230566
146	0xbd8cd4e3	-0.068765424
147	0xbcb1cf63	-0.021705335
148	0xb9911522	-0.000276723
149	0xbd167859	-0.036735866
150	0xbd5c7fa3	-0.05383266
151	0x3d043b9a	0.032283403
152	0xbda07ca9	-0.07836277
153	0xbd9f7c8a	-0.07787426
154	0x3d4e6e85	0.05039837
155	0x3cbde0fb	0.023178568
156	0xbccdd61c	-0.02512651
157	0xbd526b38	-0.051371783
158	0x3d826d20	0.0636847
159	0xbd93a6bf	-0.07209539
160	0x3c542ac3	0.012949648
161	0xbbcfa8bb	-0.006337253
162	0xbd7c777e	-0.061637394
163	0xbd9ba01a	-0.07598896
164	0xbdb3a045	-0.08770803
165	0x3d50884e	0.05091124
166	0xbd351f69	-0.04421941
167	0xbd6c68af	-0.05771702
168	0x3c737721	0.0148599455
169	0x3d9a78f5	0.07542602
170	0xbda37af4	-0.07982436
171	0xbd7b1891	-0.061302725
172	0x3d9b40b8	0.075807035
173	0xbc86f304	-0.0164733
174	0x3dacb4e9	0.084329434
175	0x3d02282e	0.0317766
176	0xbcc6ea5c	-0.024281673
177	0x3d886b1f	0.06661057
178	0x3d20c94a	0.039254464
179	0xbd8c45f1	-0.06849278
180	0x3b2c833d	0.0026323341
181	0x3cb0f6ee	0.02160212
182	0x3cdab81d	0.02669912
183	0xbd6e3269	-0.058153544
184	0xbdaee48f	-0.08539688
185	0x3dab5328	0.0836547
186	0x3d1ae123	0.037812363
187	0x3d89b4e7	0.067239575
188	0xbd661e29	-0.056181107
189	0x3ced341f	0.028955517
190	0x3cef3c7c	0.029203646
191	0x3d111f40	0.035430193
192	0x3da3f0e9	0.08004934
193	0xbdb2d2f0	-0.087316394
194	0xbd133711	-0.035941187
195	0xbd889a91	-0.06670106
196	0x3c194bb3	0.009356427
197	0xbd72ecfc	-0.059308037
198	0xbaa7b074	-0.0012793676
199	0xbd84d4d9	-0.0648591
200	0xbc9761df	-0.018479286
201	0xbcf1bd16	-0.029509109
202	0x3d5acf3c	0.05342029
203	0xbcbc5054	-0.022987522
204	0x3a98739a	0.0011631132
205	0x3d40a03b	0.047027808
206	0xbda4cdcd	-0.08047066
207	0x3d831e4e	0.064022645
208	0xbc1fc82f	-0.009752317
209	0xbd9c7805	-0.076400794
210	0xbd82a457	-0.063790016
211	0x3cbd7306	0.023126137
212	0x3d6fe829	0.058571015
213	0x3d90e15b	0.07074233
214	0xbcb658c6	-0.022259127
215	0x3c87418d	0.01651075
216	0x3d07050f	0.03296381
217	0x3bbf3041	0.0058346097
218	0xbda47a69	-0.080311604
219	0xbb9ca6ac	-0.004780611
220	0xbd5bc17c	-0.053651318
221	0x3b065561	0.0020497667
222	0xbab2b26a	-0.0013633494
223	0x3d1f2170	0.038850248
224	0x3d831350	0.06400168
225	0x3d65435a	0.055972435
226	0xbc64671a	-0.013940597
227	0x3d7cad55	0.06168874
228	0xbd2bc4c1	-0.041935686
229	0xbd80233e	-0.06256722
230	0x3d9156a8	0.070966065
231	0xbc0dc168	-0.008652069
232	0x3ccfb8cb	0.02535667
233	0x3d317509	0.043324504
234	0xbd1e3138	-0.038621157
235	0xbd5cf5e2	-0.05394543
236	0xbd98f9f6	-0.07469551
237	0xbcfb6aa9	-0.030690508
238	0x3d823225	0.063572206
239	0x3d990fe1	0.07473732
240	0x3d9e0d5b	0.07717391
241	0x3c3f5e4f	0.0116802
242	0x3cd31700	0.025767803
243	0xbd29bc42	-0.041439302
244	0xbd02688e	-0.031837992
245	0xbd75f753	-0.06005032
246	0x3cf844f6	0.03030632
247	0xbd78be9f	-0.060728665
248	0xbd51677a	-0.051124074
249	0x3c062564	0.008187626
250	0x3d02be0a	0.031919517
251	0xbcee6b0a	-0.029103775
252	0x3d953e30	0.07287252
253	0x3d8931ae	0.06698929
254	0x3d835abe	0.06413792
255	0xbd19f87f	-0.0375905

mlp.2.bias f4 [64]
0	0x3c061b8e	0.0081852805
1	0xbace18b9	-0.0015723921
2	0x3d94fb17	0.07274454
3	0x3cd9f49d	0.026605899
4	0x3c242c5e	0.010020344
5	0xbd4e114a	-0.050309457
6	0x3d917a63	0.071034215
7	0x3cd9c574	0.02658341
8	0xbda30107	-0.0795918
9	0x3cb3fc51	0.0219709
10	0x3cb44d44	0.0220095
11	0xbc347267	-0.011013604
12	0xbd95d8a1	-0.07316709
13	0xbcfbd94e	-0.030743267
14	0x3d81db2c	0.06340632
15	0x3c2e19a6	0.010626232
16	0x3d3cb8ad	0.046074558
17	0xbb1e5c5f	-0.0024163944
18	0xbdab3307	-0.08359342
19	0xbd84f48d	-0.06491957
20	0x3c727049	0.014797279
21	0xbda9924c	-0.08279857
22	0x3d802162	0.06256367
23	0x3da3314a	0.079683855
24	0xbda439af	-0.08018815
25	0xbd04a48c	-0.032383487
26	0xbdaca416	-0.084297344
27	0xbcd4be13	-0.02596954
28	0x3daf2c0e	0.08553325
29	0xbd981b81	-0.07427121
30	0x3cbdc4fe	0.023165222
31	0x3b256d64	0.0025242204
32	0x3d7412c7	0.05958822
33	0xbd545808	-0.051841766
34	0x3db4e187	0.088320784
35	0x3ceceafb	0.028920641
36	0xbd15be6a	-0.036558546
37	0xbc4c48c6	-0.012468522
38	0x3c0cda4d	0.008596969
39	0x3d5227c3	0.05130745
40	0x3cba82ea	0.022767503
41	0xbcd17aae	-0.025571194
42	0xbd8d0e30	-0.06887472
43	0x3db39a2b	0.087696396
44	0x3cdebcf5	0.027189711
45	0xbd7da1ea	-0.06192199
46	0xbbf05c8a	-0.0073352503
47	0xbda64aed	-0.0811976
48	0x3cd9919c	0.02655869
49	0xbd2bbf98	-0.041930765
50	0x3d5f0746	0.054450296
51	0x3db51700	0.088422775
52	0xbd9925ae	-0.0747789
53	0x3daa4a14	0.083149105
54	0x3db31c05	0.08745579
55	0x3d1c319d	0.038133252
56	0x3d1b0c29	0.037853394
57	0xbb289035	-0.002572072
58	0x3d80e6dd	0.06294034
59	0xbd4c6979	-0.049905274
60	0x3be10867	0.0068674567
61	0x3c6c13b9	0.014408999
62	0xbd5aaf02	-0.053389557
63	0xba34d25f	-0.0006897803

mlp.4.weight f4 [1, 64]
0	0x3dddd720	0.108320475
1	0xbd8ccd4b	-0.06875094
2	0x3c9cee77	0.019156678
3	0x3c1ace29	0.0094485665
4	0x3d70ffa9	0.058837567
5	0x3e037acc	0.12839812
6	0x3de803f2	0.113288775
7	0xbcfa2390	-0.030534536
8	0x3d58debf	0.052946802
9	0xbd882914	-0.0664846
10	0x3d779123	0.060441148
11	0xbda4a30b	-0.080389105
12	0x3c89e005	0.016830454
13	0xbd86178f	-0.06547462
14	0x3d1cd879	0.038292382
15	0x3de1cbf2	0.110252276
16	0xbda2a0f0	-0.07940853
17	0x3d62b3e2	0.05534733
18	0x3d188945	0.037240285
19	0xbd830087	-0.06396585
20	0x3d6be8ee	0.057595186
21	0xbddf1d42	-0.10894252
22	0x3d9c7a7b	0.07640549
23	0x3d178bb4	0.036998466
24	0x3e08afa8	0.13348258
25	0xbd912896	-0.07087819
26	0xbde4657e	-0.111521706
27	0xbdf5b5a2	-0.11997534
28	0x3db86c48	0.09005028
29	0x3dd4d9cb	0.10393103
30	0xbd3ee1f6	-0.046602212
31	0x3dc7dc0a	0.09758766
32	0x3d02055b	0.03174339
33	0x3dcd0f27	0.10012656
34	0xbd452653	-0.048132252
35	0x3d9c0448	0.07618004
36	0xbde2df61	-0.110777624
37	0xbdd5e6c1	-0.104444034
38	0xbdb84a38	-0.08998531
39	0x3dac156c	0.084025234
40	0xbe008009	-0.12548842
41	0x3d683577	0.056691613
42	0x3de1a184	0.11017135
43	0x3dd9aed4	0.10629049
44	0x3df60640	0.12012911
45	0xbd937bf6	-0.07201378
46	0x3c8f9261	0.017525854
47	0xbdc81f64	-0.09771612
48	0xbdbd3149	-0.09237916
49	0xbd84318f	-0.06454765
50	0x3d88dc3b	0.06682631
51	0x3df305ae	0.11866318
52	0x3d08ed48	0.033429414
53	0x3db5c459	0.08875341
54	0x3dd387a3	0.10328605
55	0x3debb699	0.11509437
56	0xbd478fab	-0.048720997
57	0xbdd38b29	-0.10329277
58	0xbd013ba6	-0.031551026
59	0xbda6ed78	-0.08150762
60	0xbda25815	-0.079269566
61	0xbc6f82ec	-0.014618617
62	0x3d1f2266	0.038851164
63	0xbdf812f4	-0.1211299
